Model: "sequential_4"
_________________________________________________________________
 Layer (type)                Output Shape              Param #   
=================================================================
 conv2d_4 (Conv2D)           (None, 62, 62, 64)        1792      
                                                                 
 dense_16 (Dense)            (None, 62, 62, 64)        4160      
                                                                 
 max_pooling2d_4 (MaxPooling  (None, 31, 31, 64)       0         
 2D)                                                             
                                                                 
 flatten_4 (Flatten)         (None, 61504)             0         
                                                                 
 dense_17 (Dense)            (None, 128)               7872640   
                                                                 
 dense_18 (Dense)            (None, 64)                8256      
                                                                 
 dense_19 (Dense)            (None, 20)                1300      
                                                                 
=================================================================
Total params: 7,888,148
Trainable params: 7,888,148
Non-trainable params: 0
_________________________________________________________________
Epoch 1/50
  1/125 [..............................] - ETA: 54s - loss: 0.0271 - mean_squared_logarithmic_error: 0.0271
…
