Model: "sequential_5"
_________________________________________________________________
 Layer (type)                Output Shape              Param #   
=================================================================
 flatten_5 (Flatten)         (None, 100)               0         
                                                                 
 dense_20 (Dense)            (None, 256)               25856     
                                                                 
 dense_21 (Dense)            (None, 128)               32896     
                                                                 
 dense_22 (Dense)            (None, 64)                8256      
                                                                 
 dense_23 (Dense)            (None, 64)                4160      
                                                                 
 dense_24 (Dense)            (None, 20)                1300      
                                                                 
=================================================================
Total params: 72,468
Trainable params: 72,468
Non-trainable params: 0
_________________________________________________________________
Epoch 1/50
  1/125 [..............................] - ETA: 1:09 - loss: 0.0254 - accuracy: 0.0312
…
