Model: "sequential_2"
_________________________________________________________________
 Layer (type)                Output Shape              Param #   
=================================================================
 conv2d_2 (Conv2D)           (None, 62, 62, 64)        1792      
                                                                 
 dense_8 (Dense)             (None, 62, 62, 256)       16640     
                                                                 
 max_pooling2d_2 (MaxPooling  (None, 31, 31, 256)      0         
 2D)                                                             
                                                                 
 dropout_2 (Dropout)         (None, 31, 31, 256)       0         
                                                                 
 flatten_2 (Flatten)         (None, 246016)            0         
                                                                 
 dense_9 (Dense)             (None, 256)               62980352  
                                                                 
 dense_10 (Dense)            (None, 128)               32896     
                                                                 
 dense_11 (Dense)            (None, 20)                2580      
                                                                 
=================================================================
Total params: 63,034,260
Trainable params: 63,034,260
Non-trainable params: 0
_________________________________________________________________
Epoch 1/50
   1/2400 [..............................] - ETA: 28:15 - loss: 0.0940 - mean_squared_error: 0.0940
…
