Model: "sequential_7"
_________________________________________________________________
 Layer (type)                Output Shape              Param #   
=================================================================
 conv2d_7 (Conv2D)           (None, 62, 62, 64)        1792      
                                                                 
 dense_28 (Dense)            (None, 62, 62, 64)        4160      
                                                                 
 max_pooling2d_7 (MaxPooling  (None, 31, 31, 64)       0         
 2D)                                                             
                                                                 
 flatten_7 (Flatten)         (None, 61504)             0         
                                                                 
 batch_normalization_1 (Batc  (None, 61504)            246016    
 hNormalization)                                                 
                                                                 
 dense_29 (Dense)            (None, 128)               7872640   
                                                                 
 dense_30 (Dense)            (None, 64)                8256      
                                                                 
 dense_31 (Dense)            (None, 20)                1300      
                                                                 
=================================================================
Total params: 8,134,164
Trainable params: 8,011,156
Non-trainable params: 123,008
_________________________________________________________________
Epoch 1/50
  1/563 [..............................] - ETA: 8:43 - loss: 0.0291 - accuracy: 0.0000e+00
…
