Model: "sequential_9"
_________________________________________________________________
 Layer (type)                Output Shape              Param #   
=================================================================
 conv2d_9 (Conv2D)           (None, 62, 62, 64)        1792      
                                                                 
 batch_normalization_3 (Batc  (None, 62, 62, 64)       256       
 hNormalization)                                                 
                                                                 
 dense_36 (Dense)            (None, 62, 62, 64)        4160      
                                                                 
 max_pooling2d_9 (MaxPooling  (None, 31, 31, 64)       0         
 2D)                                                             
                                                                 
 flatten_9 (Flatten)         (None, 61504)             0         
                                                                 
 batch_normalization_4 (Batc  (None, 61504)            246016    
 hNormalization)                                                 
                                                                 
 dense_37 (Dense)            (None, 128)               7872640   
                                                                 
 batch_normalization_5 (Batc  (None, 128)              512       
 hNormalization)                                                 
                                                                 
 dense_38 (Dense)            (None, 64)                8256      
                                                                 
 batch_normalization_6 (Batc  (None, 64)               256       
 hNormalization)                                                 
                                                                 
 dense_39 (Dense)            (None, 20)                1300      
                                                                 
=================================================================
Total params: 8,135,188
Trainable params: 8,011,668
Non-trainable params: 123,520
_________________________________________________________________
Epoch 1/50
  1/563 [..............................] - ETA: 8:52 - loss: 0.1628 - accuracy: 0.0312
…
