Model: "sequential_2"
_________________________________________________________________
 Layer (type)                Output Shape              Param #   
=================================================================
 conv2d_2 (Conv2D)           (None, 62, 62, 64)        1792      
                                                                 
 dense_8 (Dense)             (None, 62, 62, 64)        4160      
                                                                 
 max_pooling2d_2 (MaxPooling  (None, 31, 31, 64)       0         
 2D)                                                             
                                                                 
 flatten_2 (Flatten)         (None, 61504)             0         
                                                                 
 dense_9 (Dense)             (None, 128)               7872640   
                                                                 
 dense_10 (Dense)            (None, 64)                8256      
                                                                 
 dense_11 (Dense)            (None, 20)                1300      
                                                                 
=================================================================
Total params: 7,888,148
Trainable params: 7,888,148
Non-trainable params: 0
_________________________________________________________________
Epoch 1/50
  1/563 [..............................] - ETA: 1:46:38 - loss: 0.2245 - accuracy: 0.0000e+00
…
