Model: "sequential_6"
_________________________________________________________________
 Layer (type)                Output Shape              Param #   
=================================================================
 conv2d_6 (Conv2D)           (None, 62, 62, 64)        1792      
                                                                 
 dense_24 (Dense)            (None, 62, 62, 64)        4160      
                                                                 
 max_pooling2d_6 (MaxPooling  (None, 31, 31, 64)       0         
 2D)                                                             
                                                                 
 flatten_6 (Flatten)         (None, 61504)             0         
                                                                 
 dense_25 (Dense)            (None, 128)               7872640   
                                                                 
 dense_26 (Dense)            (None, 64)                8256      
                                                                 
 dense_27 (Dense)            (None, 20)                1300      
                                                                 
=================================================================
Total params: 7,888,148
Trainable params: 7,888,148
Non-trainable params: 0
_________________________________________________________________
Epoch 1/50
  1/125 [..............................] - ETA: 56s - loss: 0.0293 - accuracy: 0.0000e+00
…
