Model: "sequential"
_________________________________________________________________
 Layer (type)                Output Shape              Param #   
=================================================================
 conv2d (Conv2D)             (None, 62, 62, 64)        1792      
                                                                 
 dense (Dense)               (None, 62, 62, 64)        4160      
                                                                 
 max_pooling2d (MaxPooling2D  (None, 31, 31, 64)       0         
 )                                                               
                                                                 
 flatten (Flatten)           (None, 61504)             0         
                                                                 
 dense_1 (Dense)             (None, 128)               7872640   
                                                                 
 dense_2 (Dense)             (None, 64)                8256      
                                                                 
 dense_3 (Dense)             (None, 20)                1300      
                                                                 
=================================================================
Total params: 7,888,148
Trainable params: 7,888,148
Non-trainable params: 0
_________________________________________________________________
Epoch 1/50
  1/625 [..............................] - ETA: 2:05:15 - loss: 0.0212 - accuracy: 0.0000e+00
…
