Model: "sequential_11"
_________________________________________________________________
 Layer (type)                Output Shape              Param #   
=================================================================
 conv2d_11 (Conv2D)          (None, 62, 62, 64)        1792      
                                                                 
 dense_44 (Dense)            (None, 62, 62, 64)        4160      
                                                                 
 max_pooling2d_11 (MaxPoolin  (None, 31, 31, 64)       0         
 g2D)                                                            
                                                                 
 flatten_11 (Flatten)        (None, 61504)             0         
                                                                 
 dense_45 (Dense)            (None, 128)               7872640   
                                                                 
 dense_46 (Dense)            (None, 64)                8256      
                                                                 
 dense_47 (Dense)            (None, 20)                1300      
                                                                 
=================================================================
Total params: 7,888,148
Trainable params: 7,888,148
Non-trainable params: 0
_________________________________________________________________
Epoch 1/50
  1/125 [..............................] - ETA: 1:39 - loss: 0.0187 - accuracy: 0.1250
…
