Model: "sequential_7"
_________________________________________________________________
 Layer (type)                Output Shape              Param #   
=================================================================
 conv2d_13 (Conv2D)          (None, 62, 62, 64)        1792      
                                                                 
 dense_45 (Dense)            (None, 62, 62, 64)        4160      
                                                                 
 max_pooling2d_13 (MaxPoolin  (None, 31, 31, 64)       0         
 g2D)                                                            
                                                                 
 flatten_13 (Flatten)        (None, 61504)             0         
                                                                 
 dense_46 (Dense)            (None, 128)               7872640   
                                                                 
 dense_47 (Dense)            (None, 64)                8256      
                                                                 
 layer_normalization_11 (Lay  (None, 64)               128       
 erNormalization)                                                
                                                                 
 dense_48 (Dense)            (None, 32)                2080      
                                                                 
 dense_49 (Dense)            (None, 20)                660       
                                                                 
=================================================================
Total params: 7,889,716
Trainable params: 7,889,716
Non-trainable params: 0
_________________________________________________________________
Epoch 1/50
  1/563 [..............................] - ETA: 5:52 - loss: 0.0898 - accuracy: 0.0000e+00
…
