Model: "sequential_11"
_________________________________________________________________
 Layer (type)                Output Shape              Param #   
=================================================================
 conv2d_11 (Conv2D)          (None, 62, 62, 64)        1792      
                                                                 
 dense_44 (Dense)            (None, 62, 62, 64)        4160      
                                                                 
 batch_normalization_10 (Bat  (None, 62, 62, 64)       256       
 chNormalization)                                                
                                                                 
 max_pooling2d_11 (MaxPoolin  (None, 31, 31, 64)       0         
 g2D)                                                            
                                                                 
 flatten_11 (Flatten)        (None, 61504)             0         
                                                                 
 dense_45 (Dense)            (None, 20)                1230100   
                                                                 
=================================================================
Total params: 1,236,308
Trainable params: 1,236,180
Non-trainable params: 128
_________________________________________________________________
Epoch 1/50
  1/563 [..............................] - ETA: 4:52 - loss: 0.0696 - accuracy: 0.0000e+00
…
