Model: "sequential_13"
_________________________________________________________________
 Layer (type)                Output Shape              Param #   
=================================================================
 conv2d_13 (Conv2D)          (None, 62, 62, 64)        1792      
                                                                 
 dense_50 (Dense)            (None, 62, 62, 64)        4160      
                                                                 
 batch_normalization_12 (Bat  (None, 62, 62, 64)       256       
 chNormalization)                                                
                                                                 
 max_pooling2d_13 (MaxPoolin  (None, 31, 31, 64)       0         
 g2D)                                                            
                                                                 
 flatten_13 (Flatten)        (None, 61504)             0         
                                                                 
 dense_51 (Dense)            (None, 128)               7872640   
                                                                 
 dense_52 (Dense)            (None, 64)                8256      
                                                                 
 dense_53 (Dense)            (None, 20)                1300      
                                                                 
=================================================================
Total params: 7,888,404
Trainable params: 7,888,276
Non-trainable params: 128
_________________________________________________________________
Epoch 1/50
  1/563 [..............................] - ETA: 6:20 - loss: 0.0305 - accuracy: 0.0000e+00
…
