Model: "sequential"
_________________________________________________________________
 Layer (type)                Output Shape              Param #   
=================================================================
 conv2d (Conv2D)             (None, 62, 62, 64)        1792      
                                                                 
 dense (Dense)               (None, 62, 62, 64)        4160      
                                                                 
 max_pooling2d (MaxPooling2D  (None, 31, 31, 64)       0         
 )                                                               
                                                                 
 conv2d_1 (Conv2D)           (None, 29, 29, 64)        36928     
                                                                 
 dense_1 (Dense)             (None, 29, 29, 64)        4160      
                                                                 
 flatten (Flatten)           (None, 53824)             0         
                                                                 
 dense_2 (Dense)             (None, 128)               6889600   
                                                                 
 dense_3 (Dense)             (None, 64)                8256      
                                                                 
 dense_4 (Dense)             (None, 20)                1300      
                                                                 
=================================================================
Total params: 6,946,196
Trainable params: 6,946,196
Non-trainable params: 0
_________________________________________________________________
Epoch 1/50
  1/563 [..............................] - ETA: 1:51:19 - loss: 0.0228 - accuracy: 0.0000e+00
…
