Model: "sequential_10"
_________________________________________________________________
 Layer (type)                Output Shape              Param #   
=================================================================
 conv2d_10 (Conv2D)          (None, 62, 62, 64)        1792      
                                                                 
 dense_40 (Dense)            (None, 62, 62, 64)        4160      
                                                                 
 batch_normalization_7 (Batc  (None, 62, 62, 64)       256       
 hNormalization)                                                 
                                                                 
 max_pooling2d_10 (MaxPoolin  (None, 31, 31, 64)       0         
 g2D)                                                            
                                                                 
 flatten_10 (Flatten)        (None, 61504)             0         
                                                                 
 dense_41 (Dense)            (None, 128)               7872640   
                                                                 
 batch_normalization_8 (Batc  (None, 128)              512       
 hNormalization)                                                 
                                                                 
 dense_42 (Dense)            (None, 64)                8256      
                                                                 
 batch_normalization_9 (Batc  (None, 64)               256       
 hNormalization)                                                 
                                                                 
 dense_43 (Dense)            (None, 20)                1300      
                                                                 
=================================================================
Total params: 7,889,172
Trainable params: 7,888,660
Non-trainable params: 512
_________________________________________________________________
Epoch 1/50
  1/563 [..............................] - ETA: 7:51 - loss: 0.1581 - accuracy: 0.0312
…
