Model: "sequential_8"
_________________________________________________________________
 Layer (type)                Output Shape              Param #   
=================================================================
 conv2d_8 (Conv2D)           (None, 62, 62, 64)        1792      
                                                                 
 dense_32 (Dense)            (None, 62, 62, 64)        4160      
                                                                 
 max_pooling2d_8 (MaxPooling  (None, 31, 31, 64)       0         
 2D)                                                             
                                                                 
 flatten_8 (Flatten)         (None, 61504)             0         
                                                                 
 dense_33 (Dense)            (None, 128)               7872640   
                                                                 
 dense_34 (Dense)            (None, 64)                8256      
                                                                 
 dense_35 (Dense)            (None, 20)                1300      
                                                                 
 batch_normalization_2 (Batc  (None, 20)               80        
 hNormalization)                                                 
                                                                 
=================================================================
Total params: 7,888,228
Trainable params: 7,888,188
Non-trainable params: 40
_________________________________________________________________
Epoch 1/50
  1/563 [.............................
…
