Model: "sequential_7"
_________________________________________________________________
 Layer (type)                Output Shape              Param #   
=================================================================
 flatten_7 (Flatten)         (None, 100)               0         
                                                                 
 dense_30 (Dense)            (None, 512)               51712     
                                                                 
 dense_31 (Dense)            (None, 256)               131328    
                                                                 
 dense_32 (Dense)            (None, 128)               32896     
                                                                 
 dense_33 (Dense)            (None, 64)                8256      
                                                                 
 dense_34 (Dense)            (None, 64)                4160      
                                                                 
 dense_35 (Dense)            (None, 20)                1300      
                                                                 
=================================================================
Total params: 229,652
Trainable params: 229,652
Non-trainable params: 0
_________________________________________________________________
Epoch 1/50
  1/500 [..............................] - ETA: 4:36 - loss: 0.0309 - accuracy: 0.0000e+00
…
