Model: "sequential_5"
_________________________________________________________________
 Layer (type)                Output Shape              Param #   
=================================================================
 conv2d_5 (Conv2D)           (None, 62, 62, 64)        1792      
                                                                 
 dense_20 (Dense)            (None, 62, 62, 64)        4160      
                                                                 
 max_pooling2d_5 (MaxPooling  (None, 31, 31, 64)       0         
 2D)                                                             
                                                                 
 flatten_5 (Flatten)         (None, 61504)             0         
                                                                 
 dense_21 (Dense)            (None, 128)               7872640   
                                                                 
 dense_22 (Dense)            (None, 64)                8256      
                                                                 
 dense_23 (Dense)            (None, 20)                1300      
                                                                 
=================================================================
Total params: 7,888,148
Trainable params: 7,888,148
Non-trainable params: 0
_________________________________________________________________
Epoch 1/50
  1/563 [..............................] - ETA: 6:10 - loss: 108.6110 - accuracy: 0.0000e+00
…
