Model: "sequential"
_________________________________________________________________
 Layer (type)                Output Shape              Param #   
=================================================================
 conv2d (Conv2D)             (None, 62, 62, 64)        1792      
                                                                 
 dense (Dense)               (None, 62, 62, 128)       8320      
                                                                 
 max_pooling2d (MaxPooling2D  (None, 31, 31, 128)      0         
 )                                                               
                                                                 
 dropout (Dropout)           (None, 31, 31, 128)       0         
                                                                 
 flatten (Flatten)           (None, 123008)            0         
                                                                 
 dense_1 (Dense)             (None, 128)               15745152  
                                                                 
 dense_2 (Dense)             (None, 64)                8256      
                                                                 
 dense_3 (Dense)             (None, 20)                1300      
                                                                 
=================================================================
Total params: 15,764,820
Trainable params: 15,764,820
Non-trainable params: 0
_________________________________________________________________
Epoch 1/50
   1/1000 [..............................] - ETA: 2:57:18 - loss: 0.0431 - mean_squared_error: 0.0431
…
