Model: "sequential_6"
_________________________________________________________________
 Layer (type)                Output Shape              Param #   
=================================================================
 conv2d_6 (Conv2D)           (None, 62, 62, 64)        1792      
                                                                 
 batch_normalization (BatchN  (None, 62, 62, 64)       256       
 ormalization)                                                   
                                                                 
 dense_24 (Dense)            (None, 62, 62, 64)        4160      
                                                                 
 max_pooling2d_6 (MaxPooling  (None, 31, 31, 64)       0         
 2D)                                                             
                                                                 
 flatten_6 (Flatten)         (None, 61504)             0         
                                                                 
 dense_25 (Dense)            (None, 128)               7872640   
                                                                 
 dense_26 (Dense)            (None, 64)                8256      
                                                                 
 dense_27 (Dense)            (None, 20)                1300      
                                                                 
=================================================================
Total params: 7,888,404
Trainable params: 7,888,276
Non-trainable params: 128
_________________________________________________________________
Epoch 1/50
  1/563 [..............................] - ETA: 4:59 - loss: 0.0489 - accuracy: 0.0312
…
