Model: "sequential"
_________________________________________________________________
 Layer (type)                Output Shape              Param #   
=================================================================
 conv2d (Conv2D)             (None, 62, 62, 64)        1792      
                                                                 
 dense (Dense)               (None, 62, 62, 64)        4160      
                                                                 
 dense_1 (Dense)             (None, 62, 62, 64)        4160      
                                                                 
 flatten (Flatten)           (None, 246016)            0         
                                                                 
 dense_2 (Dense)             (None, 128)               31490176  
                                                                 
 dense_3 (Dense)             (None, 64)                8256      
                                                                 
 dense_4 (Dense)             (None, 20)                1300      
                                                                 
=================================================================
Total params: 31,509,844
Trainable params: 31,509,844
Non-trainable params: 0
_________________________________________________________________
Epoch 1/50
  1/125 [..............................] - ETA: 21:51 - loss: 0.0297 - accuracy: 0.0000e+00
…
